…
12.0, kobj=1.0, label_smoothing=0.0, nbs=64, hsv_h=0.015, hsv_s=0.7, hsv_v=0.4, degrees=0.0, translate=0.1, scale=0.5, shear=0.0, perspective=0.0, flipud=0.0, fliplr=0.5, bgr=0.0, mosaic=1.0, mixup=0.0, copy_paste=0.0, auto_augment=randaugment, erasing=0.4, crop_fraction=1.0, cfg=None, tracker=botsort.yaml, save_dir=D:\\MarMe\\github\\0.4\\plc-data\\runs\\train\\plc_symbol_detector_yolo11m\nOverriding model.yaml nc=80 with nc=9\n\n                   from  n    params  module                                       arguments                     \n  0                  -1  1      1856  ultralytics.nn.modules.conv.Conv             [3, 64, 3, 2]                 \n  1                  -1  1     73984  ultralytics.nn.modules.conv.Conv             [64, 128, 3, 2]               \n  2                  -1  1    156672  src.detection.yolo11_train.C3k2              [256, False, 0.25]            \n  3                  -1  1    295424  ultralytics.nn.modules.conv.Conv             [128, 256, 3, 2]              \n  4                  -1  1    624640  src.detection.yolo11_train.C3k2              [512, False, 0.25]            \n  5                  -1  1   1180672  ultralytics.nn.modules.conv.Conv             [256, 512, 3, 2]              \n  6                  -1  1   1838080  src.detection.yolo11_train.C3k2              [512, True]                   \n  7                  -1  1   2360320  ultralytics.nn.modules.conv.Conv             [512, 512, 3, 2]              \n  8                  -1  1   7346176  src.detection.yolo11_train.C3k2              [1024, True]                  \n  9                  -1  1    656896  ultralytics.nn.modules.block.SPPF            [512, 512, 5]                 \n 10                  -1  1     29056  src.detection.yolo11_train.C2PSA             [1024]                        \n 11                  -1  1         0  torch.nn.modules.upsampling.Upsample         [None, 2, 'nearest']          \n 12             [-1, 6]  1         0  ultralytics.nn.modules.conv.Concat           [1]                           \n 13                  -1  1   1838080  src.detection.yolo11_train.C3k2              [512, False]                  \n 14                  -1  1         0  torch.nn.modules.upsampling.Upsample         [None, 2, 'nearest']          \n 15             [-1, 4]  1         0  ultralytics.nn.modules.conv.Concat           [1]                           \n 16                  -1  1    460288  src.detection.yolo11_train.C3k2              [256, False]                  \n 17                  -1  1   2949632  ultralytics.nn.modules.conv.Conv             [1280, 256, 3, 2]             \n 18            [-1, 13]  1         0  ultralytics.nn.modules.conv.Concat           [1]                           \n 19                  -1  1   1838080  src.detection.yolo11_train.C3k2              [512, False]                  \n 20                  -1  1   5899264  ultralytics.nn.modules.conv.Conv             [1280, 512, 3, 2]             \n 21            [-1, 10]  1         0  ultralytics.nn.modules.conv.Concat           [1]                           \n 22                  -1  1   7346176  src.detection.yolo11_train.C3k2              [1024, True]                  \n 23        [16, 19, 22]  1  98726635  ultralytics.nn.modules.head.Detect           [9, [1280, 1280, 1024]]       \nYOLO11m summary: 226 layers, 133621931 parameters, 133621915 gradients, 610.8 GFLOPs\n\nTransferred 149/355 items from pretrained weights\nFreezing layer 'model.23.dfl.conv.weight'\n\u001b[34m\u001b[1mAMP: \u001b[0mrunning Automatic Mixed Precision (AMP) checks with YOLOv8n...\n\u001b[34m\u001b[1mAMP: \u001b[0mchecks passed \u00e2\u0153\u2026\nERROR: Training worker 
…
